Sigmoid activation used (train) - 
	Ratings: 1 => 4059
	Ratings: 2 => 2265
	Ratings: 3 => 3612
	Ratings: 4 => 6871
	Ratings: 5 => 33193
	Model: "sequential"
	_________________________________________________________________
	Layer (type)                 Output Shape              Param #
	=================================================================
	embedding (Embedding)        (None, 15, 64)            1387072
	_________________________________________________________________
	flatten (Flatten)            (None, 960)               0
	_________________________________________________________________
	hidden_1 (Dense)             (None, 512)               492032
	_________________________________________________________________
	hidden_2 (Dense)             (None, 128)               65664
	_________________________________________________________________
	dense (Dense)                (None, 5)                 645
	_________________________________________________________________
	softmax (Activation)         (None, 5)                 0
	=================================================================
	Total params: 1,945,413
	Trainable params: 1,945,413
	Non-trainable params: 0
	_________________________________________________________________
	None
	Epoch 1/3
	    1/45000 [..............................] - ETA: 7:48:47 - loss: 1.7970 - accuracy: 0.0000e+00 - precision: 0.0000e+00 - recall: 0.0000    4/45000 [..............................] - ETA: 13:08 - loss: 1.6914 - accuracy: 0.0625 - precision: 0.0000e+00 - recall: 0.0000e+00  45000/45000 [==============================] - 843s 19ms/step - loss: 0.8904 - accuracy: 0.6932 - precision: 0.7747 - recall: 0.6215
…
	I am already a baseball fan and knew a bit about the Negro leagues, but I learned a lot more reading this book. => 5
	Solid construction, good fit and finish.  The razor side just fits my razor. => 4

> test accuracy with relu activation = 63.490
> test accuracy with sigmoid activation = 63.220


[[512,relu], [256,sigmoid], [128,relu]]
	Ratings: 1 => 4059
	Ratings: 2 => 2265
	Ratings: 3 => 3612
	Ratings: 4 => 6871
	Ratings: 5 => 33193
	Model: "sequential"
	_________________________________________________________________
	Layer (type)                 Output Shape              Param #
	=================================================================
	embedding (Embedding)        (None, 15, 64)            1387072
	_________________________________________________________________
	flatten (Flatten)            (None, 960)               0
	_________________________________________________________________
	hidden_1 (Dense)             (None, 512)               492032
	_________________________________________________________________
	hidden_2 (Dense)             (None, 256)               131328
	_________________________________________________________________
	hidden_3 (Dense)             (None, 128)               32896
	_________________________________________________________________
	dense (Dense)                (None, 5)                 645
	_________________________________________________________________
	softmax (Activation)         (None, 5)                 0
	=================================================================
	Total params: 2,043,973
	Trainable params: 2,043,973
	Non-trainable params: 0
	_________________________________________________________________
	None
	Epoch 1/3
	11250/11250 [==============================] - 444s 39ms/step - loss: 0.8764 - accuracy: 0.6954 - precision: 0.7825 - recall: 0.6146
	Epoch 2/3
	11250/11250 [==============================] - 450s 40ms/step - loss: 0.6090 - accuracy: 0.7762 - precision: 0.8502 - recall: 0.7113
…
